…
ri":"https://localhost:8080/"},"id":"blwDD85w-y57","executionInfo":{"status":"ok","timestamp":1664790516012,"user_tz":-420,"elapsed":677,"user":{"displayName":"And rew","userId":"05916487664191867884"}},"outputId":"933a3e8b-4897-4bfa-ab9b-c3f02e6d1aec"},"execution_count":47,"outputs":[{"output_type":"stream","name":"stdout","text":["Model: \"sequential\"\n","_________________________________________________________________\n"," Layer (type)                Output Shape              Param #   \n","=================================================================\n"," dense (Dense)               (None, 128)               768       \n","                                                                 \n"," dense_1 (Dense)             (None, 128)               16512     \n","                                                                 \n"," dense_2 (Dense)             (None, 256)               33024     \n","                                                                 \n"," dense_3 (Dense)             (None, 256)               65792     \n","                                                                 \n"," dense_4 (Dense)             (None, 256)               65792     \n","                                                                 \n"," dense_5 (Dense)             (None, 256)               65792     \n","                                                                 \n"," dense_6 (Dense)             (None, 1)                 257       \n","                                                                 \n","=================================================================\n","Total params: 247,937\n","Trainable params: 247,937\n","Non-trainable params: 0\n","_________________________________________________________________\n"]}]},{"cell_type":"code","source":["num_epochs = 1000\n","batch_size = 100000\n","tf.keras.backe
…
